…
+      "WARNING:tensorflow:From /home/aogorodnikov/anaconda3/envs/imgSudoku/lib/python3.7/site-packages/tensorflow/python/framework/op_def_library.py:263: colocate_with (from tensorflow.python.framework.ops) is deprecated and will be removed in a future version.\n",
+      "Instructions for updating:\n",
+      "Colocations handled automatically by placer.\n",
       "Autoencoder Architecture\n",
-      "Model: \"model_7\"\n",
+      "Model: \"model_1\"\n",
       "_________________________________________________________________\n",
       "Layer (type)                 Output Shape              Param #   \n",
       "=================================================================\n",
-      "input_7 (InputLayer)         (None, 104, 104, 3)       0         \n",
+      "input_1 (InputLayer)         (None, 104, 104, 3)       0         \n",
       "_________________________________________________________________\n",
-      "sequential_10 (Sequential)   (None, 32)                22069760  \n",
+      "sequential_1 (Sequential)    (None, 32)                22069760  \n",
       "_________________________________________________________________\n",
-      "sequential_11 (Sequential)   (None, 104, 104, 3)       22053091  \n",
+      "sequential_2 (Sequential)    (None, 104, 104, 3)       22053091  \n",
       "=================================================================\n",
       "Total params: 44,122,851\n",
       "Trainable params: 44,111,843\n",
@@ -498,15 +497,15 @@
       "_________________________________________________________________\n",
       "None\n",
       "Discriminator Architecture\n",
-      "Model: \"sequential_12\"\n",
+      "Model: \"sequential_3\"\n",
       "_________________________________________________________________\n",
       "Layer (type)                 Output Shape              Param #   \n",
       "=================================================================\n",
-      "dense_34 (Dense)             (None, 2704)              89232     \n",
+      "dense_7 (Dense)              (None, 2704)              89232     \n",
       "_________________________________________________________________\n",
-      "dense_35 (Dense)             (None, 2704)              7314320   \n",
+      "dense_8 (Dense)              (None, 2704)              7314320   \n",
       "_________________________________________________________________\n",
-      "dense_36 (Dense)             (None, 1)                 2705      \n",
+      "dense_9 (Dense)              (None, 1)                 2705      \n",
       "=================================================================\n",
       "Total params: 14,812,514\n",
       "Trainable params: 7,406,257\n",
@@ -514,15 +513,15 @@
       "_________________________________________________________________\n",
       "None\n",
       "Generator Architecture\n",
-      "Model: \"model_8\"\n",
+      "Model: \"model_2\"\n",
       "_________________________________________________________________\n",
       "Layer (type)                 Output Shape              Param #   \n",
       "=================================================================\n",
-      "input_8 (InputLayer)         (None, 104, 104, 3)       0         \n",
+      "input_2 (InputLayer)         (None, 104, 104, 3)       0         \n",
       "_________________________________________________________________\n",
-      "sequential_10 (Sequential)   (None, 32)                22069760  \n",
+      "sequential_1 (Sequential)    (None, 32)                22069760  \n",
       "_________________________________________________________________\n",
-      "sequential_12 (Sequential)   (None, 1)                 7406257   \n",
+      "sequential_3 (Sequential)    (None, 1)                 7406257   \n",
       "=================================================================\n",
       "Total params: 29,476,017\n",
       "Trainable params: 22,058,752\n",
@@ -535,7 +534,7 @@
      "name": "stderr",
      "output_type": "stream",
      "text": [
-      "/usr/local/lib/python3.6/dist-packages/keras/engine/training.py:493: UserWarning: Discrepancy between trainable weights and collected trainable weights, did you set `model.trainable` without calling `model.compile` after ?\n",
…
